…
git_rev = 'c5f282df8500150302b1c27f8a26396969de5d4e'
gpu_ids = range(0, 1)

2024-09-03 14:22:02,675 - mmseg - INFO - Set random seed to 0, deterministic: False
/home/xmuairmud/anaconda3/envs/mmcv1.3.7/lib/python3.8/site-packages/mmcv/cnn/utils/weight_init.py:118: UserWarning: init_cfg without layer key, if you do not define override key either, this init_cfg will do nothing
  warnings.warn(
2024-09-03 14:22:08,284 - mmseg - INFO - DACS(
  (model): EncoderDecoder(
    (backbone): DIFF(
      (diff_model): DIFFEncoder(
        (diffusion_extractor): DiffusionExtractor(
          (unet): UNet2DConditionModel(
            (conv_in): Conv2d(4, 320, kernel_size=(3, 3), stride=(1, 1), padding=(1, 1))
            (time_proj): Timesteps()
            (time_embedding): TimestepEmbedding(
              (linear_1): Linear(in_features=320, out_features=1280, bias=True)
              (act): SiLU()
              (linear_2): Linear(in_features=1280, out_features=1280, bias=True)
            )
            (down_blocks): ModuleList(
              (0): CrossAttnDownBlock2D(
                (attentions): ModuleList(
                  (0-1): 2 x Transformer2DModel(
                    (norm): GroupNorm(32, 320, eps=1e-06, affine=True)
                    (proj_in): Linear(in_features=320, out_features=320, bias=True)
                    (transformer_blocks): ModuleList(
                      (0): BasicTransformerBlock(
                        (norm1): LayerNorm((320,), eps=1e-05, elementwise_affine=True)
                        (attn1): Attention(
                          (to_q): Linear(in_features=320, out_features=320, bias=False)
                          (to_k): Linear(in_features=320, out_features=320, bias=False)
                          (to_v): Linear(in_features=320, out_features=320, bias=False)
                          (to_out): ModuleList(
                            (0): Linear(in_features=320, out_features=320, bias=True)
                            (1): Dropout(p=0.0, inplace=False)
                          )
                        )
                        (norm2): LayerNorm((320,), eps=1e-05, elementwise_affine=True)
                        (attn2): Attention(
                          (to_q): Linear(in_features=320, out_features=320, bias=False)
                          (to_k): Linear(in_features=1024, out_features=320, bias=False)
                          (to_v): Linear(in_features=1024, out_features=320, bias=False)
                          (to_out): ModuleList(
                            (0): Linear(in_features=320, out_features=320, bias=True)
                            (1): Dropout(p=0.0, inplace=False)
                          )
                        )
                        (norm3): LayerNorm((320,), eps=1e-05, elementwise_affine=True)
                        (ff): FeedForward(
                          (net): ModuleList(
                            (0): GEGLU(
                              (proj): Linear(in_features=320, out_features=2560, bias=True)
                            )
                            (1): Dropout(p=0.0, inplace=False)
                            (2): Linear(in_features=1280, out_features=320, bias=True)
                          )
                        )
                      )
                    )
                    (proj_out): Linear(in_features=320, out_features=320, bias=True)
                  )
                )
                (resnets): ModuleList(
                  (0-1): 2 x ResnetBlock2D(
                    (norm1): GroupNorm(32, 320, eps=1e-05, affine=True)
                    (conv1): Conv2d(320, 320, kernel_size=(3, 3), stride=(1, 1), padding=(1, 1))
                    (time_emb_proj): Linear(in_features=1280, out_features=320, bias=True)
                    (norm2): GroupNorm(32, 320, eps=1e-05, affine=True)
                    (dropout): Dropout(p=0.0, inplace=False)
                    (conv2): Conv2d(320, 320, kernel_size=(3, 3), stride=(1, 1), padding=(1, 1))
                    (nonlinearity): SiLU()
                  )
                )
                (downsamplers): ModuleList(
                  (0): Downsample2D(
                    (conv): Conv2d(320, 320, kernel_size=(3, 3), stride=(2, 2), padding=(1, 1))
                  )
                )
              )
              (1): CrossAttnDownBlock2D(
                (attentions): ModuleList(
                  (0-1): 2 x Transformer2DModel(
                    (norm): GroupNorm(32, 640, eps=1e-06, affine=True)
                    (proj_in): Linear(in_features=640, out_features=640, bias=True)
                    (transformer_blocks): ModuleList(
                      (0): BasicTransformerBlock(
                        (norm1): LayerNorm((640,), eps=1e-05, elementwise_affine=True)
                        (attn1): Attention(
                          (to_q): Linear(in_features=640, out_features=640, bias=False)
                          (to_k): Linear(in_features=640, out_features=640, bias=False)
                          (to_v): Linear(in_features=640, out_features=640, bias=False)
                          (to_out): ModuleList(
                            (0): Linear(in_features=640, out_features=640, bias=True)
                            (1): Dropout(p=0.0, inplace=False)
                          )
                        )
                        (norm2): LayerNorm((640,), eps=1e-05, elementwise_affine=True)
                        (attn2): Attention(
                          (to_q): Linear(in_features=640, out_features=640, bias=False)
                          (to_k): Linear(in_features=1024, out_features=640, bias=False)
                          (to_v): Linear(in_features=1024, out_features=640, bias=False)
                          (to_out): ModuleList(
                            (0): Linear(in_features=640, out_features=640, bias=True)
                            (1): Dropout(p=0.0, inplace=False)
                          )
                        )
                        (norm3): LayerNorm((640,), eps=1e-05, elementwise_affine=True)
                        (ff): FeedForward(
                          (net): ModuleList(
                            (0): GEGLU(
                              (proj): Linear(in_features=640, out_features=5120, bias=True)
                            )
                            (1): Dropout(p=0.0, inplace=False)
                            (2): Linear(in_features=2560, out_features=640, bias=True)
                          )
                        )
                      )
                    )
                    (proj_out): Linear(in_features=640, out_features=640, bias=True)
                  )
                )
                (resnets): ModuleList(
                  (0): ResnetBlock2D(
                    (norm1): GroupNorm(32, 320, eps=1e-05, affine=True)
                    (conv1): Conv2d(320, 640, kernel_size=(3, 3), stride=(1, 1), padding=(1, 1))
                    (time_emb_proj): Linear(in_features=1280, out_features=640, bias=True)
                    (norm2): GroupNorm(32, 640, eps=1e-05, affine=True)
                    (dropout): Dropout(p=0.0, inplace=False)
                    (conv2): Conv2d(640, 640, kernel_size=(3, 3), stride=(1, 1), padding=(1, 1))
                    (nonlinearity): SiLU()
                    (conv_shortcut): Conv2d(320, 640, kernel_size=(1, 1), stride=(1, 1))
                  )
                  (1): ResnetBlock2D(
                    (norm1): GroupNorm(32, 640, eps=1e-05, affine=True)
                    (conv1): Conv2d(640, 640, kernel_size=(3, 3), stride=(1, 1), padding=(1, 1))
                    (time_emb_proj): Linear(in_features=1280, out_features=640, bias=True)
                    (norm2): GroupNorm(32, 640, eps=1e-05, affine=True)
                    (dropout): Dropout(p=0.0, inplace=False)
                    (conv2): Conv2d(640, 640, kernel_size=(3, 3), stride=(1, 1), padding=(1, 1))
                    (nonlinearity): SiLU()
                  )
                )
                (downsamplers): ModuleList(
                  (0): Downsample2D(
                    (conv): Conv2d(640, 640, kernel_size=(3, 3), stride=(2, 2), padding=(1, 1))
                  )
                )
              )
              (2): CrossAttnDownBlock2D(
                (attentions): ModuleList(
                  (0-1): 2 x Transformer2DModel(
                    (norm): GroupNorm(32, 1280, eps=1e-06, affine=True)
                    (proj_in): Linear(in_features=1280, out_features=1280, bias=True)
                    (transformer_blocks): ModuleList(
                      (0): BasicTransformerBlock(
                        (norm1): LayerNorm((1280,), eps=1e-05, elementwise_affine=True)
                        (attn1): Attention(
                          (to_q): Linear(in_features=1280, out_features=1280, bias=False)
                          (to_k): Linear(in_features=1280, out_features=1280, bias=False)
                          (to_v): Linear(in_features=1280, out_features=1280, bias=False)
                          (to_out): ModuleList(
                            (0): Linear(in_features=1280, out_features=1280, bias=True)
                            (1): Dropout(p=0.0, inplace=False)
                          )
                        )
                        (norm2): LayerNorm((1280,), eps=1e-05, elementwise_affine=True)
                        (attn2): Attention(
                          (to_q): Linear(in_features=1280, out_features=1280, bias=False)
                          (to_k): Linear(in_features=1024, out_features=1280, bias=False)
                          (to_v): Linear(in_features=1024, out_features=1280, bias=False)
                          (to_out): ModuleList(
                            (0): Linear(in_features=1280, out_features=1280, bias=True)
                            (1): Dropout(p=0.0, inplace=False)
                          )
                        )
                        (norm3): LayerNorm((1280,), eps=1e-05, elementwise_affine=True)
                        (ff): FeedForward(
                          (net): ModuleList(
                            (0): GEGLU(
                              (proj): Linear(in_features=1280, out_features=10240, bias=True)
                            )
                            (1): Dropout(p=0.0, inplace=False)
                            (2): Linear(in_features=5120, out_features=1280, bias=True)
                          )
                        )
                      )
                    )
                    (proj_out): Linear(in_features=1280, out_features=1280, bias=True)
                  )
                )
                (resnets): ModuleList(
                  (0): ResnetBlock2D(
                    (norm1): GroupNorm(32, 640, eps=1e-05, affine=True)
                    (conv1): Conv2d(640, 1280, kernel_size=(3, 3), stride=(1, 1), padding=(1, 1))
                    (time_emb_proj): Linear(in_features=1280, out_features=1280, bias=True)
                    (norm2): GroupNorm(32, 1280, eps=1e-05, affine=True)
                    (dropout): Dropout(p=0.0, inplace=False)
                    (conv2): Conv2d(1280, 1280, kernel_size=(3, 3), stride=(1, 1), padding=(1, 1))
                    (nonlinearity): SiLU()
                    (conv_shortcut): Conv2d(640, 1280, kernel_size=(1, 1), stride=(1, 1))
                  )
                  (1): ResnetBlock2D(
                    (norm1): GroupNorm(32, 1280, eps=1e-05, affine=True)
                    (conv1): Conv2d(1280, 1280, kernel_size=(3, 3), stride=(1, 1), padding=(1, 1))
                    (time_emb_proj): Linear(in_features=1280, out_features=1280, bias=True)
                    (norm2): GroupNorm(32, 1280, eps=1e-05, affine=True)
                    (dropout): Dropout(p=0.0, inplace=False)
                    (conv2): Conv2d(1280, 1280, kernel_size=(3, 3), stride=(1, 1), padding=(1, 1))
                    (nonlinearity): SiLU()
                  )
                )
                (downsamplers): ModuleList(
                  (0): Downsample2D(
                    (conv): Conv2d(1280, 1280, kernel_size=(3, 3), stride=(2, 2), padding=(1, 1))
                  )
                )
              )
              (3): DownBlock2D(
                (resnets): ModuleList(
                  (0-1): 2 x ResnetBlock2D(
                    (norm1): GroupNorm(32, 1280, eps=1e-05, affine=True)
                    (conv1): Conv2d(1280, 1280, kernel_size=(3, 3), stride=(1, 1), padding=(1, 1))
                    (time_emb_proj): Linear(in_features=1280, out_features=1280, bias=True)
                    (norm2): GroupNorm(32, 1280, eps=1e-05, affine=True)
                    (dropout): Dropout(p=0.0, inplace=False)
                    (conv2): Conv2d(1280, 1280, kernel_size=(3, 3), stride=(1, 1), padding=(1, 1))
                    (nonlinearity): SiLU()
                  )
                )
              )
            )
            (up_blocks): ModuleList(
              (0): UpBlock2D(
                (resnets): ModuleList(
                  (0-2): 3 x ResnetBlock2D(
                    (norm1): GroupNorm(32, 2560, eps=1e-05, affine=True)
                    (conv1): Conv2d(2560, 1280, kernel_size=(3, 3), stride=(1, 1), padding=(1, 1))
                    (time_emb_proj): Linear(in_features=1280, out_features=1280, bias=True)
                    (norm2): GroupNorm(32, 1280, eps=1e-05, affine=True)
                    (dropout): Dropout(p=0.0, inplace=False)
                    (conv2): Conv2d(1280, 1280, kernel_size=(3, 3), stride=(1, 1), padding=(1, 1))
                    (nonlinearity): SiLU()
                    (conv_shortcut): Conv2d(2560, 1280, kernel_size=(1, 1), stride=(1, 1))
                  )
                )
                (upsamplers): ModuleList(
                  (0): Upsample2D(
                    (conv): Conv2d(1280, 1280, kernel_size=(3, 3), stride=(1, 1), padding=(1, 1))
                  )
                )
              )
              (1): CrossAttnUpBlock2D(
                (attentions): ModuleList(
                  (0-2): 3 x Transformer2DModel(
                    (norm): GroupNorm(32, 1280, eps=1e-06, affine=True)
                    (proj_in): Linear(in_features=1280, out_features=1280, bias=True)
                    (transformer_blocks): ModuleList(
                      (0): BasicTransformerBlock(
                        (norm1): LayerNorm((1280,), eps=1e-05, elementwise_affine=True)
                        (attn1): Attention(
                          (to_q): Linear(in_features=1280, out_features=1280, bias=False)
                          (to_k): Linear(in_features=1280, out_features=1280, bias=False)
                          (to_v): Linear(in_features=1280, out_features=1280, bias=False)
                          (to_out): ModuleList(
                            (0): Linear(in_features=1280, out_features=1280, bias=True)
                            (1): Dropout(p=0.0, inplace=False)
                          )
                        )
                        (norm2): LayerNorm((1280,), eps=1e-05, elementwise_affine=True)
                        (attn2): Attention(
                          (to_q): Linear(in_features=1280, out_features=1280, bias=False)
                          (to_k): Linear(in_features=1024, out_features=1280, bias=False)
                          (to_v): Linear(in_features=1024, out_features=1280, bias=False)
                          (to_out): ModuleList(
                            (0): Linear(in_features=1280, out_features=1280, bias=True)
                            (1): Dropout(p=0.0, inplace=False)
                          )
                        )
                        (norm3): LayerNorm((1280,), eps=1e-05, elementwise_affine=True)
                        (ff): FeedForward(
                          (net): ModuleList(
                            (0): GEGLU(
                              (proj): Linear(in_features=1280, out_features=10240, bias=True)
                            )
                            (1): Dropout(p=0.0, inplace=False)
                            (2): Linear(in_features=5120, out_features=1280, bias=True)
                          )
                        )
                      )
                    )
                    (proj_out): Linear(in_features=1280, out_features=1280, bias=True)
                  )
                )
                (resnets): ModuleList(
                  (0-1): 2 x ResnetBlock2D(
                    (norm1): GroupNorm(32, 2560, eps=1e-05, affine=True)
                    (conv1): Conv2d(2560, 1280, kernel_size=(3, 3), stride=(1, 1), padding=(1, 1))
                    (time_emb_proj): Linear(in_features=1280, out_features=1280, bias=True)
                    (norm2): GroupNorm(32, 1280, eps=1e-05, affine=True)
                    (dropout): Dropout(p=0.0, inplace=False)
                    (conv2): Conv2d(1280, 1280, kernel_size=(3, 3), stride=(1, 1), padding=(1, 1))
                    (nonlinearity): SiLU()
                    (conv_shortcut): Conv2d(2560, 1280, kernel_size=(1, 1), stride=(1, 1))
                  )
                  (2): ResnetBlock2D(
                    (norm1): GroupNorm(32, 1920, eps=1e-05, affine=True)
                    (conv1): Conv2d(1920, 1280, kernel_size=(3, 3), stride=(1, 1), padding=(1, 1))
                    (time_emb_proj): Linear(in_features=1280, out_features=1280, bias=True)
                    (norm2): GroupNorm(32, 1280, eps=1e-05, affine=True)
                    (dropout): Dropout(p=0.0, inplace=False)
                    (conv2): Conv2d(1280, 1280, kernel_size=(3, 3), stride=(1, 1), padding=(1, 1))
                    (nonlinearity): SiLU()
                    (conv_shortcut): Conv2d(1920, 1280, kernel_size=(1, 1), stride=(1, 1))
                  )
                )
                (upsamplers): ModuleList(
                  (0): Upsample2D(
                    (conv): Conv2d(1280, 1280, kernel_size=(3, 3), stride=(1, 1), padding=(1, 1))
                  )
                )
              )
              (2): CrossAttnUpBlock2D(
                (attentions): ModuleList(
                  (0-2): 3 x Transformer2DModel(
                    (norm): GroupNorm(32, 640, eps=1e-06, affine=True)
                    (proj_in): Linear(in_features=640, out_features=640, bias=True)
                    (transformer_blocks): ModuleList(
                      (0): BasicTransformerBlock(
                        (norm1): LayerNorm((640,), eps=1e-05, elementwise_affine=True)
                        (attn1): Attention(
                          (to_q): Linear(in_features=640, out_features=640, bias=False)
                          (to_k): Linear(in_features=640, out_features=640, bias=False)
                          (to_v): Linear(in_features=640, out_features=640, bias=False)
                          (to_out): ModuleList(
                            (0): Linear(in_features=640, out_features=640, bias=True)
                            (1): Dropout(p=0.0, inplace=False)
                          )
                        )
                        (norm2): LayerNorm((640,), eps=1e-05, elementwise_affine=True)
                        (attn2): Attention(
                          (to_q): Linear(in_features=640, out_features=640, bias=False)
                          (to_k): Linear(in_features=1024, out_features=640, bias=False)
                          (to_v): Linear(in_features=1024, out_features=640, bias=False)
                          (to_out): ModuleList(
                            (0): Linear(in_features=640, out_features=640, bias=True)
                            (1): Dropout(p=0.0, inplace=False)
                          )
                        )
                        (norm3): LayerNorm((640,), eps=1e-05, elementwise_affine=True)
                        (ff): FeedForward(
                          (net): ModuleList(
                            (0): GEGLU(
                              (proj): Linear(in_features=640, out_features=5120, bias=True)
                            )
                            (1): Dropout(p=0.0, inplace=False)
                            (2): Linear(in_features=2560, out_features=640, bias=True)
                          )
                        )
                      )
                    )
                    (proj_out): Linear(in_features=640, out_features=640, bias=True)
                  )
                )
                (resnets): ModuleList(
                  (0): ResnetBlock2D(
                    (norm1): GroupNorm(32, 1920, eps=1e-05, affine=True)
                    (conv1): Conv2d(1920, 640, kernel_size=(3, 3), stride=(1, 1), padding=(1, 1))
                    (time_emb_proj): Linear(in_features=1280, out_features=640, bias=True)
                    (norm2): GroupNorm(32, 640, eps=1e-05, affine=True)
                    (dropout): Dropout(p=0.0, inplace=False)
                    (conv2): Conv2d(640, 640, kernel_size=(3, 3), stride=(1, 1), padding=(1, 1))
                    (nonlinearity): SiLU()
                    (conv_shortcut): Conv2d(1920, 640, kernel_size=(1, 1), stride=(1, 1))
                  )
                  (1): ResnetBlock2D(
                    (norm1): GroupNorm(32, 1280, eps=1e-05, affine=True)
                    (conv1): Conv2d(1280, 640, kernel_size=(3, 3), stride=(1, 1), padding=(1, 1))
                    (time_emb_proj): Linear(in_features=1280, out_features=640, bias=True)
                    (norm2): GroupNorm(32, 640, eps=1e-05, affine=True)
                    (dropout): Dropout(p=0.0, inplace=False)
                    (conv2): Conv2d(640, 640, kernel_size=(3, 3), stride=(1, 1), padding=(1, 1))
                    (nonlinearity): SiLU()
                    (conv_shortcut): Conv2d(1280, 640, kernel_size=(1, 1), stride=(1, 1))
                  )
                  (2): ResnetBlock2D(
                    (norm1): GroupNorm(32, 960, eps=1e-05, affine=True)
                    (conv1): Conv2d(960, 640, kernel_size=(3, 3), stride=(1, 1), padding=(1, 1))
                    (time_emb_proj): Linear(in_features=1280, out_features=640, bias=True)
                    (norm2): GroupNorm(32, 640, eps=1e-05, affine=True)
                    (dropout): Dropout(p=0.0, inplace=False)
                    (conv2): Conv2d(640, 640, kernel_size=(3, 3), stride=(1, 1), padding=(1, 1))
                    (nonlinearity): SiLU()
                    (conv_shortcut): Conv2d(960, 640, kernel_size=(1, 1), stride=(1, 1))
                  )
                )
                (upsamplers): ModuleList(
                  (0): Upsample2D(
                    (conv): Conv2d(640, 640, kernel_size=(3, 3), stride=(1, 1), padding=(1, 1))
                  )
                )
              )
              (3): CrossAttnUpBlock2D(
                (attentions): ModuleList(
                  (0-2): 3 x Transformer2DModel(
                    (norm): GroupNorm(32, 320, eps=1e-06, affine=True)
                    (proj_in): Linear(in_features=320, out_features=320, bias=True)
                    (transformer_blocks): ModuleList(
                      (0): BasicTransformerBlock(
                        (norm1): LayerNorm((320,), eps=1e-05, elementwise_affine=True)
                        (attn1): Attention(
                          (to_q): Linear(in_features=320, out_features=320, bias=False)
                          (to_k): Linear(in_features=320, out_features=320, bias=False)
                          (to_v): Linear(in_features=320, out_features=320, bias=False)
                          (to_out): ModuleList(
                            (0): Linear(in_features=320, out_features=320, bias=True)
                            (1): Dropout(p=0.0, inplace=False)
                          )
                        )
                        (norm2): LayerNorm((320,), eps=1e-05, elementwise_affine=True)
                        (attn2): Attention(
                          (to_q): Linear(in_features=320, out_features=320, bias=False)
                          (to_k): Linear(in_features=1024, out_features=320, bias=False)
                          (to_v): Linear(in_features=1024, out_features=320, bias=False)
                          (to_out): ModuleList(
                            (0): Linear(in_features=320, out_features=320, bias=True)
                            (1): Dropout(p=0.0, inplace=False)
                          )
                        )
                        (norm3): LayerNorm((320,), eps=1e-05, elementwise_affine=True)
                        (ff): FeedForward(
                          (net): ModuleList(
                            (0): GEGLU(
                              (proj): Linear(in_features=320, out_features=2560, bias=True)
                            )
                            (1): Dropout(p=0.0, inplace=False)
                            (2): Linear(in_features=1280, out_features=320, bias=True)
                          )
                        )
                      )
                    )
                    (proj_out): Linear(in_features=320, out_features=320, bias=True)
                  )
                )
                (resnets): ModuleList(
                  (0): ResnetBlock2D(
                    (norm1): GroupNorm(32, 960, eps=1e-05, affine=True)
                    (conv1): Conv2d(960, 320, kernel_size=(3, 3), stride=(1, 1), padding=(1, 1))
                    (time_emb_proj): Linear(in_features=1280, out_features=320, bias=True)
                    (norm2): GroupNorm(32, 320, eps=1e-05, affine=True)
                    (dropout): Dropout(p=0.0, inplace=False)
                    (conv2): Conv2d(320, 320, kernel_size=(3, 3), stride=(1, 1), padding=(1, 1))
                    (nonlinearity): SiLU()
                    (conv_shortcut): Conv2d(960, 320, kernel_size=(1, 1), stride=(1, 1))
                  )
                  (1-2): 2 x ResnetBlock2D(
                    (norm1): GroupNorm(32, 640, eps=1e-05, affine=True)
                    (conv1): Conv2d(640, 320, kernel_size=(3, 3), stride=(1, 1), padding=(1, 1))
                    (time_emb_proj): Linear(in_features=1280, out_features=320, bias=True)
                    (norm2): GroupNorm(32, 320, eps=1e-05, affine=True)
                    (dropout): Dropout(p=0.0, inplace=False)
                    (conv2): Conv2d(320, 320, kernel_size=(3, 3), stride=(1, 1), padding=(1, 1))
                    (nonlinearity): SiLU()
                    (conv_shortcut): Conv2d(640, 320, kernel_size=(1, 1), stride=(1, 1))
                  )
                )
              )
            )
            (mid_block): UNetMidBlock2DCrossAttn(
              (attentions): ModuleList(
                (0): Transformer2DModel(
                  (norm): GroupNorm(32, 1280, eps=1e-06, affine=True)
                  (proj_in): Linear(in_features=1280, out_features=1280, bias=True)
                  (transformer_blocks): ModuleList(
                    (0): BasicTransformerBlock(
                      (norm1): LayerNorm((1280,), eps=1e-05, elementwise_affine=True)
                      (attn1): Attention(
                        (to_q): Linear(in_features=1280, out_features=1280, bias=False)
                        (to_k): Linear(in_features=1280, out_features=1280, bias=False)
                        (to_v): Linear(in_features=1280, out_features=1280, bias=False)
                        (to_out): ModuleList(
                          (0): Linear(in_features=1280, out_features=1280, bias=True)
                          (1): Dropout(p=0.0, inplace=False)
                        )
                      )
                      (norm2): LayerNorm((1280,), eps=1e-05, elementwise_affine=True)
                      (attn2): Attention(
                        (to_q): Linear(in_features=1280, out_features=1280, bias=False)
                        (to_k): Linear(in_features=1024, out_features=1280, bias=False)
                        (to_v): Linear(in_features=1024, out_features=1280, bias=False)
                        (to_out): ModuleList(
                          (0): Linear(in_features=1280, out_features=1280, bias=True)
                          (1): Dropout(p=0.0, inplace=False)
                        )
                      )
                      (norm3): LayerNorm((1280,), eps=1e-05, elementwise_affine=True)
                      (ff): FeedForward(
                        (net): ModuleList(
                          (0): GEGLU(
                            (proj): Linear(in_features=1280, out_features=10240, bias=True)
                          )
                          (1): Dropout(p=0.0, inplace=False)
                          (2): Linear(in_features=5120, out_features=1280, bias=True)
                        )
                      )
                    )
                  )
                  (proj_out): Linear(in_features=1280, out_features=1280, bias=True)
                )
              )
              (resnets): ModuleList(
                (0-1): 2 x ResnetBlock2D(
                  (norm1): GroupNorm(32, 1280, eps=1e-05, affine=True)
                  (conv1): Conv2d(1280, 1280, kernel_size=(3, 3), stride=(1, 1), padding=(1, 1))
                  (time_emb_proj): Linear(in_features=1280, out_features=1280, bias=True)
                  (norm2): GroupNorm(32, 1280, eps=1e-05, affine=True)
                  (dropout): Dropout(p=0.0, inplace=False)
                  (conv2): Conv2d(1280, 1280, kernel_size=(3, 3), stride=(1, 1), padding=(1, 1))
                  (nonlinearity): SiLU()
                )
              )
            )
            (conv_norm_out): GroupNorm(32, 320, eps=1e-05, affine=True)
            (conv_act): SiLU()
            (conv_out): Conv2d(320, 4, kernel_size=(3, 3), stride=(1, 1), padding=(1, 1))
          )
          (vae): AutoencoderKL(
            (encoder): Encoder(
              (conv_in): Conv2d(3, 128, kernel_size=(3, 3), stride=(1, 1), padding=(1, 1))
              (down_blocks): ModuleList(
                (0): DownEncoderBlock2D(
                  (resnets): ModuleList(
                    (0-1): 2 x ResnetBlock2D(
                      (norm1): GroupNorm(32, 128, eps=1e-06, affine=True)
                      (conv1): Conv2d(128, 128, kernel_size=(3, 3), stride=(1, 1), padding=(1, 1))
                      (norm2): GroupNorm(32, 128, eps=1e-06, affine=True)
                      (dropout): Dropout(p=0.0, inplace=False)
                      (conv2): Conv2d(128, 128, kernel_size=(3, 3), stride=(1, 1), padding=(1, 1))
                      (nonlinearity): SiLU()
                    )
                  )
                  (downsamplers): ModuleList(
                    (0): Downsample2D(
                      (conv): Conv2d(128, 128, kernel_size=(3, 3), stride=(2, 2))
                    )
                  )
                )
                (1): DownEncoderBlock2D(
                  (resnets): ModuleList(
                    (0): ResnetBlock2D(
                      (norm1): GroupNorm(32, 128, eps=1e-06, affine=True)
                      (conv1): Conv2d(128, 256, kernel_size=(3, 3), stride=(1, 1), padding=(1, 1))
                      (norm2): GroupNorm(32, 256, eps=1e-06, affine=True)
                      (dropout): Dropout(p=0.0, inplace=False)
                      (conv2): Conv2d(256, 256, kernel_size=(3, 3), stride=(1, 1), padding=(1, 1))
                      (nonlinearity): SiLU()
                      (conv_shortcut): Conv2d(128, 256, kernel_size=(1, 1), stride=(1, 1))
                    )
                    (1): ResnetBlock2D(
                      (norm1): GroupNorm(32, 256, eps=1e-06, affine=True)
                      (conv1): Conv2d(256, 256, kernel_size=(3, 3), stride=(1, 1), padding=(1, 1))
                      (norm2): GroupNorm(32, 256, eps=1e-06, affine=True)
                      (dropout): Dropout(p=0.0, inplace=False)
                      (conv2): Conv2d(256, 256, kernel_size=(3, 3), stride=(1, 1), padding=(1, 1))
                      (nonlinearity): SiLU()
                    )
                  )
                  (downsamplers): ModuleList(
                    (0): Downsample2D(
                      (conv): Conv2d(256, 256, kernel_size=(3, 3), stride=(2, 2))
                    )
                  )
                )
                (2): DownEncoderBlock2D(
                  (resnets): ModuleList(
                    (0): ResnetBlock2D(
                      (norm1): GroupNorm(32, 256, eps=1e-06, affine=True)
                      (conv1): Conv2d(256, 512, kernel_size=(3, 3), stride=(1, 1), padding=(1, 1))
                      (norm2): GroupNorm(32, 512, eps=1e-06, affine=True)
                      (dropout): Dropout(p=0.0, inplace=False)
                      (conv2): Conv2d(512, 512, kernel_size=(3, 3), stride=(1, 1), padding=(1, 1))
                      (nonlinearity): SiLU()
                      (conv_shortcut): Conv2d(256, 512, kernel_size=(1, 1), stride=(1, 1))
                    )
                    (1): ResnetBlock2D(
                      (norm1): GroupNorm(32, 512, eps=1e-06, affine=True)
                      (conv1): Conv2d(512, 512, kernel_size=(3, 3), stride=(1, 1), padding=(1, 1))
                      (norm2): GroupNorm(32, 512, eps=1e-06, affine=True)
                      (dropout): Dropout(p=0.0, inplace=False)
                      (conv2): Conv2d(512, 512, kernel_size=(3, 3), stride=(1, 1), padding=(1, 1))
                      (nonlinearity): SiLU()
                    )
                  )
                  (downsamplers): ModuleList(
                    (0): Downsample2D(
                      (conv): Conv2d(512, 512, kernel_size=(3, 3), stride=(2, 2))
                    )
                  )
                )
                (3): DownEncoderBlock2D(
                  (resnets): ModuleList(
                    (0-1): 2 x ResnetBlock2D(
                      (norm1): GroupNorm(32, 512, eps=1e-06, affine=True)
                      (conv1): Conv2d(512, 512, kernel_size=(3, 3), stride=(1, 1), padding=(1, 1))
                      (norm2): GroupNorm(32, 512, eps=1e-06, affine=True)
                      (dropout): Dropout(p=0.0, inplace=False)
                      (conv2): Conv2d(512, 512, kernel_size=(3, 3), stride=(1, 1), padding=(1, 1))
                      (nonlinearity): SiLU()
                    )
                  )
                )
              )
              (mid_block): UNetMidBlock2D(
                (attentions): ModuleList(
                  (0): AttentionBlock(
                    (group_norm): GroupNorm(32, 512, eps=1e-06, affine=True)
                    (query): Linear(in_features=512, out_features=512, bias=True)
                    (key): Linear(in_features=512, out_features=512, bias=True)
                    (value): Linear(in_features=512, out_features=512, bias=True)
                    (proj_attn): Linear(in_features=512, out_features=512, bias=True)
                  )
                )
                (resnets): ModuleList(
                  (0-1): 2 x ResnetBlock2D(
                    (norm1): GroupNorm(32, 512, eps=1e-06, affine=True)
                    (conv1): Conv2d(512, 512, kernel_size=(3, 3), stride=(1, 1), padding=(1, 1))
                    (norm2): GroupNorm(32, 512, eps=1e-06, affine=True)
                    (dropout): Dropout(p=0.0, inplace=False)
                    (conv2): Conv2d(512, 512, kernel_size=(3, 3), stride=(1, 1), padding=(1, 1))
                    (nonlinearity): SiLU()
                  )
                )
              )
              (conv_norm_out): GroupNorm(32, 512, eps=1e-06, affine=True)
              (conv_act): SiLU()
              (conv_out): Conv2d(512, 8, kernel_size=(3, 3), stride=(1, 1), padding=(1, 1))
            )
            (decoder): Decoder(
              (conv_in): Conv2d(4, 512, kernel_size=(3, 3), stride=(1, 1), padding=(1, 1))
              (up_blocks): ModuleList(
                (0-1): 2 x UpDecoderBlock2D(
                  (resnets): ModuleList(
                    (0-2): 3 x ResnetBlock2D(
                      (norm1): GroupNorm(32, 512, eps=1e-06, affine=True)
                      (conv1): Conv2d(512, 512, kernel_size=(3, 3), stride=(1, 1), padding=(1, 1))
                      (norm2): GroupNorm(32, 512, eps=1e-06, affine=True)
                      (dropout): Dropout(p=0.0, inplace=False)
                      (conv2): Conv2d(512, 512, kernel_size=(3, 3), stride=(1, 1), padding=(1, 1))
                      (nonlinearity): SiLU()
                    )
                  )
                  (upsamplers): ModuleList(
                    (0): Upsample2D(
                      (conv): Conv2d(512, 512, kernel_size=(3, 3), stride=(1, 1), padding=(1, 1))
                    )
                  )
                )
                (2): UpDecoderBlock2D(
                  (resnets): ModuleList(
                    (0): ResnetBlock2D(
                      (norm1): GroupNorm(32, 512, eps=1e-06, affine=True)
                      (conv1): Conv2d(512, 256, kernel_size=(3, 3), stride=(1, 1), padding=(1, 1))
                      (norm2): GroupNorm(32, 256, eps=1e-06, affine=True)
                      (dropout): Dropout(p=0.0, inplace=False)
                      (conv2): Conv2d(256, 256, kernel_size=(3, 3), stride=(1, 1), padding=(1, 1))
                      (nonlinearity): SiLU()
                      (conv_shortcut): Conv2d(512, 256, kernel_size=(1, 1), stride=(1, 1))
                    )
                    (1-2): 2 x ResnetBlock2D(
                      (norm1): GroupNorm(32, 256, eps=1e-06, affine=True)
                      (conv1): Conv2d(256, 256, kernel_size=(3, 3), stride=(1, 1), padding=(1, 1))
                      (norm2): GroupNorm(32, 256, eps=1e-06, affine=True)
                      (dropout): Dropout(p=0.0, inplace=False)
                      (conv2): Conv2d(256, 256, kernel_size=(3, 3), stride=(1, 1), padding=(1, 1))
                      (nonlinearity): SiLU()
                    )
                  )
                  (upsamplers): ModuleList(
                    (0): Upsample2D(
                      (conv): Conv2d(256, 256, kernel_size=(3, 3), stride=(1, 1), padding=(1, 1))
                    )
                  )
                )
                (3): UpDecoderBlock2D(
                  (resnets): ModuleList(
                    (0): ResnetBlock2D(
                      (norm1): GroupNorm(32, 256, eps=1e-06, affine=True)
                      (conv1): Conv2d(256, 128, kernel_size=(3, 3), stride=(1, 1), padding=(1, 1))
                      (norm2): GroupNorm(32, 128, eps=1e-06, affine=True)
                      (dropout): Dropout(p=0.0, inplace=False)
                      (conv2): Conv2d(128, 128, kernel_size=(3, 3), stride=(1, 1), padding=(1, 1))
                      (nonlinearity): SiLU()
                      (conv_shortcut): Conv2d(256, 128, kernel_size=(1, 1), stride=(1, 1))
                    )
                    (1-2): 2 x ResnetBlock2D(
                      (norm1): GroupNorm(32, 128, eps=1e-06, affine=True)
                      (conv1): Conv2d(128, 128, kernel_size=(3, 3), stride=(1, 1), padding=(1, 1))
                      (norm2): GroupNorm(32, 128, eps=1e-06, affine=True)
                      (dropout): Dropout(p=0.0, inplace=False)
                      (conv2): Conv2d(128, 128, kernel_size=(3, 3), stride=(1, 1), padding=(1, 1))
                      (nonlinearity): SiLU()
                    )
                  )
                )
              )
              (mid_block): UNetMidBlock2D(
                (attentions): ModuleList(
                  (0): AttentionBlock(
                    (group_norm): GroupNorm(32, 512, eps=1e-06, affine=True)
                    (query): Linear(in_features=512, out_features=512, bias=True)
                    (key): Linear(in_features=512, out_features=512, bias=True)
                    (value): Linear(in_features=512, out_features=512, bias=True)
                    (proj_attn): Linear(in_features=512, out_features=512, bias=True)
                  )
                )
                (resnets): ModuleList(
                  (0-1): 2 x ResnetBlock2D(
                    (norm1): GroupNorm(32, 512, eps=1e-06, affine=True)
                    (conv1): Conv2d(512, 512, kernel_size=(3, 3), stride=(1, 1), padding=(1, 1))
                    (norm2): GroupNorm(32, 512, eps=1e-06, affine=True)
                    (dropout): Dropout(p=0.0, inplace=False)
                    (conv2): Conv2d(512, 512, kernel_size=(3, 3), stride=(1, 1), padding=(1, 1))
                    (nonlinearity): SiLU()
                  )
                )
              )
              (conv_norm_out): GroupNorm(32, 128, eps=1e-06, affine=True)
              (conv_act): SiLU()
              (conv_out): Conv2d(128, 3, kernel_size=(3, 3), stride=(1, 1), padding=(1, 1))
            )
            (quant_conv): Conv2d(8, 8, kernel_size=(1, 1), stride=(1, 1))
            (post_quant_conv): Conv2d(4, 4, kernel_size=(1, 1), stride=(1, 1))
          )
          (clip): CLIPTextModel(
            (text_model): CLIPTextTransformer(
              (embeddings): CLIPTextEmbeddings(
                (token_embedding): Embedding(49408, 1024)
                (position_embedding): Embedding(77, 1024)
              )
              (encoder): CLIPEncoder(
                (layers): ModuleList(
                  (0-22): 23 x CLIPEncoderLayer(
                    (self_attn): CLIPAttention(
                      (k_proj): Linear(in_features=1024, out_features=1024, bias=True)
                      (v_proj): Linear(in_features=1024, out_features=1024, bias=True)
                      (q_proj): Linear(in_features=1024, out_features=1024, bias=True)
                      (out_proj): Linear(in_features=1024, out_features=1024, bias=True)
                    )
                    (layer_norm1): LayerNorm((1024,), eps=1e-05, elementwise_affine=True)
                    (mlp): CLIPMLP(
                      (activation_fn): GELUActivation()
                      (fc1): Linear(in_features=1024, out_features=4096, bias=True)
                      (fc2): Linear(in_features=4096, out_features=1024, bias=True)
                    )
                    (layer_norm2): LayerNorm((1024,), eps=1e-05, elementwise_affine=True)
                  )
                )
              )
              (final_layer_norm): LayerNorm((1024,), eps=1e-05, elementwise_affine=True)
            )
          )
        )
        (aggregation_network): StrideDirectAggregationNetwork(
          (bottleneck_layers): ModuleList(
            (0): Sequential(
              (0): BottleneckBlock(
                (shortcut): Conv2d(
                  19200, 2048, kernel_size=(1, 1), stride=(1, 1), bias=False
                  (norm): GroupNorm(16, 2048, eps=1e-05, affine=True)
                )
                (in_gn): GroupNormWithStability()
                (conv1): Conv2d(
                  19200, 512, kernel_size=(1, 1), stride=(1, 1), bias=False
                  (norm): GroupNorm(16, 512, eps=1e-05, affine=True)
                )
                (conv2): Conv2d(
                  512, 512, kernel_size=(3, 3), stride=(1, 1), padding=(1, 1), bias=False
                  (norm): GroupNorm(16, 512, eps=1e-05, affine=True)
                )
                (conv3): Conv2d(
                  512, 2048, kernel_size=(1, 1), stride=(1, 1), bias=False
                  (norm): GroupNorm(16, 2048, eps=1e-05, affine=True)
                )
              )
            )
            (1): Sequential(
              (0): BottleneckBlock(
                (shortcut): Conv2d(
                  38400, 2048, kernel_size=(1, 1), stride=(1, 1), bias=False
                  (norm): GroupNorm(16, 2048, eps=1e-05, affine=True)
                )
                (in_gn): GroupNormWithStability()
                (conv1): Conv2d(
                  38400, 512, kernel_size=(1, 1), stride=(1, 1), bias=False
                  (norm): GroupNorm(16, 512, eps=1e-05, affine=True)
                )
                (conv2): Conv2d(
                  512, 512, kernel_size=(3, 3), stride=(1, 1), padding=(1, 1), bias=False
                  (norm): GroupNorm(16, 512, eps=1e-05, affine=True)
                )
                (conv3): Conv2d(
                  512, 2048, kernel_size=(1, 1), stride=(1, 1), bias=False
                  (norm): GroupNorm(16, 2048, eps=1e-05, affine=True)
                )
              )
            )
            (2): Sequential(
              (0): BottleneckBlock(
                (shortcut): Conv2d(
                  19200, 1024, kernel_size=(1, 1), stride=(1, 1), bias=False
                  (norm): GroupNorm(16, 1024, eps=1e-05, affine=True)
                )
                (in_gn): GroupNormWithStability()
                (conv1): Conv2d(
                  19200, 256, kernel_size=(1, 1), stride=(1, 1), bias=False
                  (norm): GroupNorm(16, 256, eps=1e-05, affine=True)
                )
                (conv2): Conv2d(
                  256, 256, kernel_size=(3, 3), stride=(1, 1), padding=(1, 1), bias=False
                  (norm): GroupNorm(16, 256, eps=1e-05, affine=True)
                )
                (conv3): Conv2d(
                  256, 1024, kernel_size=(1, 1), stride=(1, 1), bias=False
                  (norm): GroupNorm(16, 1024, eps=1e-05, affine=True)
                )
              )
            )
            (3): Sequential(
              (0): BottleneckBlock(
                (shortcut): Conv2d(
                  9600, 512, kernel_size=(1, 1), stride=(1, 1), bias=False
                  (norm): GroupNorm(16, 512, eps=1e-05, affine=True)
                )
                (in_gn): GroupNormWithStability()
                (conv1): Conv2d(
                  9600, 128, kernel_size=(1, 1), stride=(1, 1), bias=False
                  (norm): GroupNorm(16, 128, eps=1e-05, affine=True)
                )
                (conv2): Conv2d(
                  128, 128, kernel_size=(3, 3), stride=(1, 1), padding=(1, 1), bias=False
                  (norm): GroupNorm(16, 128, eps=1e-05, affine=True)
                )
                (conv3): Conv2d(
                  128, 512, kernel_size=(1, 1), stride=(1, 1), bias=False
                  (norm): GroupNorm(16, 512, eps=1e-05, affine=True)
                )
              )
            )
          )
        )
        (finecoder): DiftStrideFinecoder(
          (fusion_net): EnhancedFusionNetwork(
            (fusion1): EnhancedFeatureFusion(
              (deconv): ConvTranspose2d(2048, 1024, kernel_size=(4, 4), stride=(2, 2), padding=(1, 1))
              (resblock): ResBlock(
                (conv1): Conv2d(1024, 1024, kernel_size=(3, 3), stride=(1, 1), padding=(1, 1))
                (gn1): GroupNorm(32, 1024, eps=1e-05, affine=True)
                (relu): ReLU(inplace=True)
                (conv2): Conv2d(1024, 1024, kernel_size=(3, 3), stride=(1, 1), padding=(1, 1))
                (gn2): GroupNorm(32, 1024, eps=1e-05, affine=True)
              )
            )
            (fusion2): EnhancedFeatureFusion(
              (deconv): ConvTranspose2d(1024, 512, kernel_size=(4, 4), stride=(2, 2), padding=(1, 1))
              (resblock): ResBlock(
                (conv1): Conv2d(512, 512, kernel_size=(3, 3), stride=(1, 1), padding=(1, 1))
                (gn1): GroupNorm(32, 512, eps=1e-05, affine=True)
                (relu): ReLU(inplace=True)
                (conv2): Conv2d(512, 512, kernel_size=(3, 3), stride=(1, 1), padding=(1, 1))
                (gn2): GroupNorm(32, 512, eps=1e-05, affine=True)
              )
            )
            (fusion3): EnhancedFeatureFusion(
              (deconv): ConvTranspose2d(512, 256, kernel_size=(4, 4), stride=(2, 2), padding=(1, 1))
              (resblock): ResBlock(
                (conv1): Conv2d(256, 256, kernel_size=(3, 3), stride=(1, 1), padding=(1, 1))
                (gn1): GroupNorm(32, 256, eps=1e-05, affine=True)
                (relu): ReLU(inplace=True)
                (conv2): Conv2d(256, 256, kernel_size=(3, 3), stride=(1, 1), padding=(1, 1))
                (gn2): GroupNorm(32, 256, eps=1e-05, affine=True)
              )
            )
          )
          (gn_x8): GroupNorm(32, 512, eps=1e-05, affine=True)
          (gn_x16): GroupNorm(32, 1024, eps=1e-05, affine=True)
          (gn_x32): GroupNorm(32, 2048, eps=1e-05, affine=True)
        )
      )
    )
    init_cfg={'type': 'Pretrained', 'checkpoint': None}
    (decode_head): DAFormerHead(
      input_transform=multiple_select, ignore_index=255, align_corners=False
      (loss_decode): CrossEntropyLoss()
      (conv_seg): Conv2d(256, 19, kernel_size=(1, 1), stride=(1, 1))
      (dropout): Dropout2d(p=0.1, inplace=False)
      (embed_layers): ModuleDict(
        (0): MLP(
          (proj): Linear(in_features=256, out_features=256, bias=True)
        )
        (1): MLP(
          (proj): Linear(in_features=512, out_features=256, bias=True)
        )
        (2): MLP(
          (proj): Linear(in_features=1024, out_features=256, bias=True)
        )
        (3): MLP(
          (proj): Linear(in_features=2048, out_features=256, bias=True)
        )
      )
      (fuse_layer): ASPPWrapper(
        (aspp_modules): DepthwiseSeparableASPPModule(
          (0): ConvModule(
            (conv): Conv2d(1024, 256, kernel_size=(1, 1), stride=(1, 1), bias=False)
            (bn): BatchNorm2d(256, eps=1e-05, momentum=0.1, affine=True, track_running_stats=True)
            (activate): ReLU(inplace=True)
          )
          (1): DepthwiseSeparableConvModule(
            (depthwise_conv): ConvModule(
              (conv): Conv2d(1024, 1024, kernel_size=(3, 3), stride=(1, 1), padding=(6, 6), dilation=(6, 6), groups=1024, bias=False)
              (bn): BatchNorm2d(1024, eps=1e-05, momentum=0.1, affine=True, track_running_stats=True)
              (activate): ReLU(inplace=True)
            )
            (pointwise_conv): ConvModule(
              (conv): Conv2d(1024, 256, kernel_size=(1, 1), stride=(1, 1), bias=False)
              (bn): BatchNorm2d(256, eps=1e-05, momentum=0.1, affine=True, track_running_stats=True)
              (activate): ReLU(inplace=True)
            )
          )
          (2): DepthwiseSeparableConvModule(
            (depthwise_conv): ConvModule(
              (conv): Conv2d(1024, 1024, kernel_size=(3, 3), stride=(1, 1), padding=(12, 12), dilation=(12, 12), groups=1024, bias=False)
              (bn): BatchNorm2d(1024, eps=1e-05, momentum=0.1, affine=True, track_running_stats=True)
              (activate): ReLU(inplace=True)
            )
            (pointwise_conv): ConvModule(
              (conv): Conv2d(1024, 256, kernel_size=(1, 1), stride=(1, 1), bias=False)
              (bn): BatchNorm2d(256, eps=1e-05, momentum=0.1, affine=True, track_running_stats=True)
              (activate): ReLU(inplace=True)
            )
          )
          (3): DepthwiseSeparableConvModule(
            (depthwise_conv): ConvModule(
              (conv): Conv2d(1024, 1024, kernel_size=(3, 3), stride=(1, 1), padding=(18, 18), dilation=(18, 18), groups=1024, bias=False)
              (bn): BatchNorm2d(1024, eps=1e-05, momentum=0.1, affine=True, track_running_stats=True)
              (activate): ReLU(inplace=True)
            )
            (pointwise_conv): ConvModule(
              (conv): Conv2d(1024, 256, kernel_size=(1, 1), stride=(1, 1), bias=False)
              (bn): BatchNorm2d(256, eps=1e-05, momentum=0.1, affine=True, track_running_stats=True)
              (activate): ReLU(inplace=True)
            )
          )
        )
        (bottleneck): ConvModule(
          (conv): Conv2d(1024, 256, kernel_size=(3, 3), stride=(1, 1), padding=(1, 1), bias=False)
          (bn): BatchNorm2d(256, eps=1e-05, momentum=0.1, affine=True, track_running_stats=True)
          (activate): ReLU(inplace=True)
        )
      )
    )
    init_cfg={'type': 'Normal', 'std': 0.01, 'override': {'name': 'conv_seg'}}
  )
)
2024-09-03 14:22:08,557 - mmseg - INFO - Loaded 24966 images from /home/xmuairmud/data/gta/images
2024-09-03 14:22:08,715 - mmseg - INFO - RCS Classes: [18, 12, 17, 16, 7, 6, 11, 15, 4, 5, 14, 3, 9, 13, 8, 1, 10, 2, 0]
…
